(ReXNetV1(
   (features): Sequential(
     (0): Conv2d(3, 36, kernel_size=(3, 3), stride=(2, 2), padding=(1, 1), bias=False)
     (1): BatchNorm2d(36, eps=1e-05, momentum=0.1, affine=True, track_running_stats=True)
     (2): SiLU()
     (3): LinearBottleneck(
       (out): Sequential(
         (0): Conv2d(36, 36, kernel_size=(3, 3), stride=(1, 1), padding=(1, 1), groups=36, bias=False)
         (1): BatchNorm2d(36, eps=1e-05, momentum=0.1, affine=True, track_running_stats=True)
         (2): ReLU6()
         (3): Conv2d(36, 18, kernel_size=(1, 1), stride=(1, 1), bias=False)
         (4): BatchNorm2d(18, eps=1e-05, momentum=0.1, affine=True, track_running_stats=True)
       )
     )
     (4): LinearBottleneck(
       (out): Sequential(
         (0): Conv2d(18, 108, kernel_size=(1, 1), stride=(1, 1), bias=False)
         (1): BatchNorm2d(108, eps=1e-05, momentum=0.1, affine=True, track_running_stats=True)
         (2): SiLU()
         (3): Conv2d(108, 108, kernel_size=(3, 3), stride=(2, 2), padding=(1, 1), groups=108, bias=False)
         (4): BatchNorm2d(108, eps=1e-05, momentum=0.1, affine=True, track_running_stats=True)
         (5): ReLU6()
         (6): Conv2d(108, 31, kernel_size=(1, 1), stride=(1, 1), bias=False)
         (7): BatchNorm2d(31, eps=1e-05, momentum=0.1, affine=True, track_running_stats=True)
       )
     )
     (5): LinearBottleneck(
       (out): Sequential(
         (0): Conv2d(31, 186, kernel_size=(1, 1), stride=(1, 1), bias=False)
         (1): BatchNorm2d(186, eps=1e-05, momentum=0.1, affine=True, track_running_stats=True)
         (2): SiLU()
         (3): Conv2d(186, 186, kernel_size=(3, 3), stride=(1, 1), padding=(1, 1), groups=186, bias=False)
         (4): BatchNorm2d(186, eps=1e-05, momentum=0.1, affine=True, track_running_stats=True)
         (5): ReLU6()
         (6): Conv2d(186, 43, kernel_size=(1, 1), stride=(1, 1), bias=False)
         (7): BatchNorm2d(43, eps=1e-05, momentum=0.1, affine=True, track_running_stats=True)
       )
     )
     (6): LinearBottleneck(
       (out): Sequential(
         (0): Conv2d(43, 258, kernel_size=(1, 1), stride=(1, 1), bias=False)
         (1): BatchNorm2d(258, eps=1e-05, momentum=0.1, affine=True, track_running_stats=True)
         (2): SiLU()
         (3): Conv2d(258, 258, kernel_size=(3, 3), stride=(2, 2), padding=(1, 1), groups=258, bias=False)
         (4): BatchNorm2d(258, eps=1e-05, momentum=0.1, affine=True, track_running_stats=True)
         (5): SE(
           (avg_pool): AdaptiveAvgPool2d(output_size=1)
           (fc): Sequential(
             (0): Conv2d(258, 21, kernel_size=(1, 1), stride=(1, 1))
             (1): BatchNorm2d(21, eps=1e-05, momentum=0.1, affine=True, track_running_stats=True)
             (2): ReLU(inplace=True)
             (3): Conv2d(21, 258, kernel_size=(1, 1), stride=(1, 1))
             (4): Sigmoid()
           )
         )
         (6): ReLU6()
         (7): Conv2d(258, 56, kernel_size=(1, 1), stride=(1, 1), bias=False)
         (8): BatchNorm2d(56, eps=1e-05, momentum=0.1, affine=True, track_running_stats=True)
       )
     )
     (7): LinearBottleneck(
       (out): Sequential(
         (0): Conv2d(56, 336, kernel_size=(1, 1), stride=(1, 1), bias=False)
         (1): BatchNorm2d(336, eps=1e-05, momentum=0.1, affine=True, track_running_stats=True)
         (2): SiLU()
         (3): Conv2d(336, 336, kernel_size=(3, 3), stride=(1, 1), padding=(1, 1), groups=336, bias=False)
         (4): BatchNorm2d(336, eps=1e-05, momentum=0.1, affine=True, track_running_stats=True)
         (5): SE(
           (avg_pool): AdaptiveAvgPool2d(output_size=1)
           (fc): Sequential(
             (0): Conv2d(336, 28, kernel_size=(1, 1), stride=(1, 1))
             (1): BatchNorm2d(28, eps=1e-05, momentum=0.1, affine=True, track_running_stats=True)
             (2): ReLU(inplace=True)
             (3): Conv2d(28, 336, kernel_size=(1, 1), stride=(1, 1))
             (4): Sigmoid()
           )
         )
         (6): ReLU6()
         (7): Conv2d(336, 68, kernel_size=(1, 1), stride=(1, 1), bias=False)
         (8): BatchNorm2d(68, eps=1e-05, momentum=0.1, affine=True, track_running_stats=True)
       )
     )
     (8): LinearBottleneck(
       (out): Sequential(
         (0): Conv2d(68, 408, kernel_size=(1, 1), stride=(1, 1), bias=False)
         (1): BatchNorm2d(408, eps=1e-05, momentum=0.1, affine=True, track_running_stats=True)
         (2): SiLU()
         (3): Conv2d(408, 408, kernel_size=(3, 3), stride=(2, 2), padding=(1, 1), groups=408, bias=False)
         (4): BatchNorm2d(408, eps=1e-05, momentum=0.1, affine=True, track_running_stats=True)
         (5): SE(
           (avg_pool): AdaptiveAvgPool2d(output_size=1)
           (fc): Sequential(
             (0): Conv2d(408, 34, kernel_size=(1, 1), stride=(1, 1))
             (1): BatchNorm2d(34, eps=1e-05, momentum=0.1, affine=True, track_running_stats=True)
             (2): ReLU(inplace=True)
             (3): Conv2d(34, 408, kernel_size=(1, 1), stride=(1, 1))
             (4): Sigmoid()
           )
         )
         (6): ReLU6()
         (7): Conv2d(408, 81, kernel_size=(1, 1), stride=(1, 1), bias=False)
         (8): BatchNorm2d(81, eps=1e-05, momentum=0.1, affine=True, track_running_stats=True)
       )
     )
     (9): LinearBottleneck(
       (out): Sequential(
         (0): Conv2d(81, 486, kernel_size=(1, 1), stride=(1, 1), bias=False)
         (1): BatchNorm2d(486, eps=1e-05, momentum=0.1, affine=True, track_running_stats=True)
         (2): SiLU()
         (3): Conv2d(486, 486, kernel_size=(3, 3), stride=(1, 1), padding=(1, 1), groups=486, bias=False)
         (4): BatchNorm2d(486, eps=1e-05, momentum=0.1, affine=True, track_running_stats=True)
         (5): SE(
           (avg_pool): AdaptiveAvgPool2d(output_size=1)
           (fc): Sequential(
             (0): Conv2d(486, 40, kernel_size=(1, 1), stride=(1, 1))
             (1): BatchNorm2d(40, eps=1e-05, momentum=0.1, affine=True, track_running_stats=True)
             (2): ReLU(inplace=True)
             (3): Conv2d(40, 486, kernel_size=(1, 1), stride=(1, 1))
             (4): Sigmoid()
           )
         )
         (6): ReLU6()
         (7): Conv2d(486, 94, kernel_size=(1, 1), stride=(1, 1), bias=False)
         (8): BatchNorm2d(94, eps=1e-05, momentum=0.1, affine=True, track_running_stats=True)
       )
     )
     (10): LinearBottleneck(
       (out): Sequential(
         (0): Conv2d(94, 564, kernel_size=(1, 1), stride=(1, 1), bias=False)
         (1): BatchNorm2d(564, eps=1e-05, momentum=0.1, affine=True, track_running_stats=True)
         (2): SiLU()
         (3): Conv2d(564, 564, kernel_size=(3, 3), stride=(1, 1), padding=(1, 1), groups=564, bias=False)
         (4): BatchNorm2d(564, eps=1e-05, momentum=0.1, affine=True, track_running_stats=True)
         (5): SE(
           (avg_pool): AdaptiveAvgPool2d(output_size=1)
           (fc): Sequential(
             (0): Conv2d(564, 47, kernel_size=(1, 1), stride=(1, 1))
             (1): BatchNorm2d(47, eps=1e-05, momentum=0.1, affine=True, track_running_stats=True)
             (2): ReLU(inplace=True)
             (3): Conv2d(47, 564, kernel_size=(1, 1), stride=(1, 1))
             (4): Sigmoid()
           )
         )
         (6): ReLU6()
         (7): Conv2d(564, 106, kernel_size=(1, 1), stride=(1, 1), bias=False)
         (8): BatchNorm2d(106, eps=1e-05, momentum=0.1, affine=True, track_running_stats=True)
       )
     )
     (11): LinearBottleneck(
       (out): Sequential(
         (0): Conv2d(106, 636, kernel_size=(1, 1), stride=(1, 1), bias=False)
         (1): BatchNorm2d(636, eps=1e-05, momentum=0.1, affine=True, track_running_stats=True)
         (2): SiLU()
         (3): Conv2d(636, 636, kernel_size=(3, 3), stride=(1, 1), padding=(1, 1), groups=636, bias=False)
         (4): BatchNorm2d(636, eps=1e-05, momentum=0.1, affine=True, track_running_stats=True)
         (5): SE(
           (avg_pool): AdaptiveAvgPool2d(output_size=1)
           (fc): Sequential(
             (0): Conv2d(636, 53, kernel_size=(1, 1), stride=(1, 1))
             (1): BatchNorm2d(53, eps=1e-05, momentum=0.1, affine=True, track_running_stats=True)
             (2): ReLU(inplace=True)
             (3): Conv2d(53, 636, kernel_size=(1, 1), stride=(1, 1))
             (4): Sigmoid()
           )
         )
         (6): ReLU6()
         (7): Conv2d(636, 119, kernel_size=(1, 1), stride=(1, 1), bias=False)
         (8): BatchNorm2d(119, eps=1e-05, momentum=0.1, affine=True, track_running_stats=True)
       )
     )
     (12): LinearBottleneck(
       (out): Sequential(
         (0): Conv2d(119, 714, kernel_size=(1, 1), stride=(1, 1), bias=False)
         (1): BatchNorm2d(714, eps=1e-05, momentum=0.1, affine=True, track_running_stats=True)
         (2): SiLU()
         (3): Conv2d(714, 714, kernel_size=(3, 3), stride=(1, 1), padding=(1, 1), groups=714, bias=False)
         (4): BatchNorm2d(714, eps=1e-05, momentum=0.1, affine=True, track_running_stats=True)
         (5): SE(
           (avg_pool): AdaptiveAvgPool2d(output_size=1)
           (fc): Sequential(
             (0): Conv2d(714, 59, kernel_size=(1, 1), stride=(1, 1))
             (1): BatchNorm2d(59, eps=1e-05, momentum=0.1, affine=True, track_running_stats=True)
             (2): ReLU(inplace=True)
             (3): Conv2d(59, 714, kernel_size=(1, 1), stride=(1, 1))
             (4): Sigmoid()
           )
         )
         (6): ReLU6()
         (7): Conv2d(714, 131, kernel_size=(1, 1), stride=(1, 1), bias=False)
         (8): BatchNorm2d(131, eps=1e-05, momentum=0.1, affine=True, track_running_stats=True)
       )
     )
     (13): LinearBottleneck(
       (out): Sequential(
         (0): Conv2d(131, 786, kernel_size=(1, 1), stride=(1, 1), bias=False)
         (1): BatchNorm2d(786, eps=1e-05, momentum=0.1, affine=True, track_running_stats=True)
         (2): SiLU()
         (3): Conv2d(786, 786, kernel_size=(3, 3), stride=(1, 1), padding=(1, 1), groups=786, bias=False)
         (4): BatchNorm2d(786, eps=1e-05, momentum=0.1, affine=True, track_running_stats=True)
         (5): SE(
           (avg_pool): AdaptiveAvgPool2d(output_size=1)
           (fc): Sequential(
             (0): Conv2d(786, 65, kernel_size=(1, 1), stride=(1, 1))
             (1): BatchNorm2d(65, eps=1e-05, momentum=0.1, affine=True, track_running_stats=True)
             (2): ReLU(inplace=True)
             (3): Conv2d(65, 786, kernel_size=(1, 1), stride=(1, 1))
             (4): Sigmoid()
           )
         )
         (6): ReLU6()
         (7): Conv2d(786, 144, kernel_size=(1, 1), stride=(1, 1), bias=False)
         (8): BatchNorm2d(144, eps=1e-05, momentum=0.1, affine=True, track_running_stats=True)
       )
     )
     (14): LinearBottleneck(
       (out): Sequential(
         (0): Conv2d(144, 864, kernel_size=(1, 1), stride=(1, 1), bias=False)
         (1): BatchNorm2d(864, eps=1e-05, momentum=0.1, affine=True, track_running_stats=True)
         (2): SiLU()
         (3): Conv2d(864, 864, kernel_size=(3, 3), stride=(2, 2), padding=(1, 1), groups=864, bias=False)
         (4): BatchNorm2d(864, eps=1e-05, momentum=0.1, affine=True, track_running_stats=True)
         (5): SE(
           (avg_pool): AdaptiveAvgPool2d(output_size=1)
           (fc): Sequential(
             (0): Conv2d(864, 72, kernel_size=(1, 1), stride=(1, 1))
             (1): BatchNorm2d(72, eps=1e-05, momentum=0.1, affine=True, track_running_stats=True)
             (2): ReLU(inplace=True)
             (3): Conv2d(72, 864, kernel_size=(1, 1), stride=(1, 1))
             (4): Sigmoid()
           )
         )
         (6): ReLU6()
         (7): Conv2d(864, 157, kernel_size=(1, 1), stride=(1, 1), bias=False)
         (8): BatchNorm2d(157, eps=1e-05, momentum=0.1, affine=True, track_running_stats=True)
       )
     )
     (15): LinearBottleneck(
       (out): Sequential(
         (0): Conv2d(157, 942, kernel_size=(1, 1), stride=(1, 1), bias=False)
         (1): BatchNorm2d(942, eps=1e-05, momentum=0.1, affine=True, track_running_stats=True)
         (2): SiLU()
         (3): Conv2d(942, 942, kernel_size=(3, 3), stride=(1, 1), padding=(1, 1), groups=942, bias=False)
         (4): BatchNorm2d(942, eps=1e-05, momentum=0.1, affine=True, track_running_stats=True)
         (5): SE(
           (avg_pool): AdaptiveAvgPool2d(output_size=1)
           (fc): Sequential(
             (0): Conv2d(942, 78, kernel_size=(1, 1), stride=(1, 1))
             (1): BatchNorm2d(78, eps=1e-05, momentum=0.1, affine=True, track_running_stats=True)
             (2): ReLU(inplace=True)
             (3): Conv2d(78, 942, kernel_size=(1, 1), stride=(1, 1))
             (4): Sigmoid()
           )
         )
         (6): ReLU6()
         (7): Conv2d(942, 169, kernel_size=(1, 1), stride=(1, 1), bias=False)
         (8): BatchNorm2d(169, eps=1e-05, momentum=0.1, affine=True, track_running_stats=True)
       )
     )
     (16): LinearBottleneck(
       (out): Sequential(
         (0): Conv2d(169, 1014, kernel_size=(1, 1), stride=(1, 1), bias=False)
         (1): BatchNorm2d(1014, eps=1e-05, momentum=0.1, affine=True, track_running_stats=True)
         (2): SiLU()
         (3): Conv2d(1014, 1014, kernel_size=(3, 3), stride=(1, 1), padding=(1, 1), groups=1014, bias=False)
         (4): BatchNorm2d(1014, eps=1e-05, momentum=0.1, affine=True, track_running_stats=True)
         (5): SE(
           (avg_pool): AdaptiveAvgPool2d(output_size=1)
           (fc): Sequential(
             (0): Conv2d(1014, 84, kernel_size=(1, 1), stride=(1, 1))
             (1): BatchNorm2d(84, eps=1e-05, momentum=0.1, affine=True, track_running_stats=True)
             (2): ReLU(inplace=True)
             (3): Conv2d(84, 1014, kernel_size=(1, 1), stride=(1, 1))
             (4): Sigmoid()
           )
         )
         (6): ReLU6()
         (7): Conv2d(1014, 182, kernel_size=(1, 1), stride=(1, 1), bias=False)
         (8): BatchNorm2d(182, eps=1e-05, momentum=0.1, affine=True, track_running_stats=True)
       )
     )
     (17): LinearBottleneck(
       (out): Sequential(
         (0): Conv2d(182, 1092, kernel_size=(1, 1), stride=(1, 1), bias=False)
         (1): BatchNorm2d(1092, eps=1e-05, momentum=0.1, affine=True, track_running_stats=True)
         (2): SiLU()
         (3): Conv2d(1092, 1092, kernel_size=(3, 3), stride=(1, 1), padding=(1, 1), groups=1092, bias=False)
         (4): BatchNorm2d(1092, eps=1e-05, momentum=0.1, affine=True, track_running_stats=True)
         (5): SE(
           (avg_pool): AdaptiveAvgPool2d(output_size=1)
           (fc): Sequential(
             (0): Conv2d(1092, 91, kernel_size=(1, 1), stride=(1, 1))
             (1): BatchNorm2d(91, eps=1e-05, momentum=0.1, affine=True, track_running_stats=True)
             (2): ReLU(inplace=True)
             (3): Conv2d(91, 1092, kernel_size=(1, 1), stride=(1, 1))
             (4): Sigmoid()
           )
         )
         (6): ReLU6()
         (7): Conv2d(1092, 194, kernel_size=(1, 1), stride=(1, 1), bias=False)
         (8): BatchNorm2d(194, eps=1e-05, momentum=0.1, affine=True, track_running_stats=True)
       )
     )
     (18): LinearBottleneck(
       (out): Sequential(
         (0): Conv2d(194, 1164, kernel_size=(1, 1), stride=(1, 1), bias=False)
         (1): BatchNorm2d(1164, eps=1e-05, momentum=0.1, affine=True, track_running_stats=True)
         (2): SiLU()
         (3): Conv2d(1164, 1164, kernel_size=(3, 3), stride=(1, 1), padding=(1, 1), groups=1164, bias=False)
         (4): BatchNorm2d(1164, eps=1e-05, momentum=0.1, affine=True, track_running_stats=True)
         (5): SE(
           (avg_pool): AdaptiveAvgPool2d(output_size=1)
           (fc): Sequential(
             (0): Conv2d(1164, 97, kernel_size=(1, 1), stride=(1, 1))
             (1): BatchNorm2d(97, eps=1e-05, momentum=0.1, affine=True, track_running_stats=True)
             (2): ReLU(inplace=True)
             (3): Conv2d(97, 1164, kernel_size=(1, 1), stride=(1, 1))
             (4): Sigmoid()
           )
         )
         (6): ReLU6()
         (7): Conv2d(1164, 207, kernel_size=(1, 1), stride=(1, 1), bias=False)
         (8): BatchNorm2d(207, eps=1e-05, momentum=0.1, affine=True, track_running_stats=True)
       )
     )
     (19): Conv2d(207, 1433, kernel_size=(1, 1), stride=(1, 1), bias=False)
     (20): BatchNorm2d(1433, eps=1e-05, momentum=0.1, affine=True, track_running_stats=True)
     (21): SiLU()
     (22): AdaptiveAvgPool2d(output_size=1)
   )
   (output): Sequential(
     (0): Dropout(p=0.5, inplace=False)
     (1): Conv2d(1433, 400, kernel_size=(1, 1), stride=(1, 1))
   )
 ),
 {'train': [… 'val': [… 'train': [array(0.11893344),
   array(0.37675777),
   array(0.52300425),
   array(0.59764188),
   array(0.64300137),
   array(0.67386601),
   array(0.69618519),
   array(0.71179779),
   array(0.72479628),
   array(0.73631643),
   array(0.74484387),
   array(0.75198313),
   array(0.75791447),
   array(0.76213312),
…
